…
ResNet50 output size per frame: torch.Size([32, 2048])
  0%|                                                                                                                                                   | 0/310 [00:00<?, ?it/s]
ResNet50 output size per frame: torch.Size([32, 2048])
===============================================================================================
Layer (type:depth-idx)                        Output Shape              Param #
===============================================================================================
DeepfakeDetector                              [32, 2]                   2,049,000
├─ResNet: 1-5                                 --                        (recursive)
│    └─Conv2d: 2-1                            [32, 64, 112, 112]        (9,408)
│    └─BatchNorm2d: 2-2                       [32, 64, 112, 112]        (128)
│    └─ReLU: 2-3                              [32, 64, 112, 112]        --
│    └─MaxPool2d: 2-4                         [32, 64, 56, 56]          --
│    └─Sequential: 2-5                        [32, 256, 56, 56]         --
│    │    └─Bottleneck: 3-1                   [32, 256, 56, 56]         (75,008)
│    │    └─Bottleneck: 3-2                   [32, 256, 56, 56]         (70,400)
│    │    └─Bottleneck: 3-3                   [32, 256, 56, 56]         (70,400)
│    └─Sequential: 2-6                        [32, 512, 28, 28]         --
│    │    └─Bottleneck: 3-4                   [32, 512, 28, 28]         (379,392)
│    │    └─Bottleneck: 3-5                   [32, 512, 28, 28]         (280,064)
│    │    └─Bottleneck: 3-6                   [32, 512, 28, 28]         (280,064)
│    │    └─Bottleneck: 3-7                   [32, 512, 28, 28]         (280,064)
│    └─Sequential: 2-7                        [32, 1024, 14, 14]        --
│    │    └─Bottleneck: 3-8                   [32, 1024, 14, 14]        (1,512,448)
│    │    └─Bottleneck: 3-9                   [32, 1024, 14, 14]        (1,117,184)
│    │    └─Bottleneck: 3-10                  [32, 1024, 14, 14]        (1,117,184)
│    │    └─Bottleneck: 3-11                  [32, 1024, 14, 14]        (1,117,184)
│    │    └─Bottleneck: 3-12                  [32, 1024, 14, 14]        (1,117,184)
│    │    └─Bottleneck: 3-13                  [32, 1024, 14, 14]        (1,117,184)
│    └─Sequential: 2-8                        [32, 2048, 7, 7]          --
│    │    └─Bottleneck: 3-14                  [32, 2048, 7, 7]          (6,039,552)
│    │    └─Bottleneck: 3-15                  [32, 2048, 7, 7]          (4,462,592)
│    │    └─Bottleneck: 3-16                  [32, 2048, 7, 7]          (4,462,592)
├─AdaptiveAvgPool2d: 1-2                      [32, 2048, 1, 1]          --
├─ResNet: 1-5                                 --                        (recursive)
│    └─Conv2d: 2-9                            [32, 64, 112, 112]        (recursive)
│    └─BatchNorm2d: 2-10                      [32, 64, 112, 112]        (recursive)
│    └─ReLU: 2-11                             [32, 64, 112, 112]        --
│    └─MaxPool2d: 2-12                        [32, 64, 56, 56]          --
│    └─Sequential: 2-13                       [32, 256, 56, 56]         (recursive)
│    │    └─Bottleneck: 3-17                  [32, 256, 56, 56]         (recursive)
│    │    └─Bottleneck: 3-18                  [32, 256, 56, 56]         (recursive)
│    │    └─Bottleneck: 3-19                  [32, 256, 56, 56]         (recursive)
│    └─Sequential: 2-14                       [32, 512, 28, 28]         (recursive)
…
│    │    └─Bottleneck: 3-43                  [32, 1024, 14, 14]        (recursive)
│    │    └─Bottleneck: 3-44                  [32, 1024, 14, 14]        (recursive)
│    │    └─Bottleneck: 3-45                  [32, 1024, 14, 14]        (recursive)
│    └─Sequential: 2-24                       [32, 2048, 7, 7]          (recursive)
│    │    └─Bottleneck: 3-46                  [32, 2048, 7, 7]          (recursive)
│    │    └─Bottleneck: 3-47                  [32, 2048, 7, 7]          (recursive)
│    │    └─Bottleneck: 3-48                  [32, 2048, 7, 7]          (recursive)
├─AdaptiveAvgPool2d: 1-6                      [32, 2048, 1, 1]          --
├─LSTM: 1-7                                   [32, 3, 50]               420,000
├─Linear: 1-8                                 [32, 512]                 77,312
├─ReLU: 1-9                                   [32, 512]                 --
├─Linear: 1-10                                [32, 128]                 65,664
├─ReLU: 1-11                                  [32, 128]                 --
├─Linear: 1-12                                [32, 2]                   258
├─ReLU: 1-13                                  [32, 2]                   --
├─Softmax: 1-14                               [32, 2]                   --
===============================================================================================
Total params: 26,120,266
Trainable params: 563,234
Non-trainable params: 25,557,032
Total mult-adds (G): 392.42
===============================================================================================
Input size (MB): 75.50
Forward/backward pass size (MB): 17071.28
Params size (MB): 96.29
Estimated Total Size (MB): 17243.06
…
