…
  0%|          | 0/310 [00:00<?, ?it/s]/raid/home/automathon_2024/account6/.local/lib/python3.10/site-packages/torch/nn/modules/loss.py:535: UserWarning: Using a target size (torch.Size([32, 2])) that is different to the input size (torch.Size([32, 1])). This will likely lead to incorrect results due to broadcasting. Please ensure they have the same size.
  return F.mse_loss(input, target, reduction=self.reduction)
  1%|          | 2/310 [00:01<02:40,  1.92it/s]
===============================================================================================
Layer (type:depth-idx)                        Output Shape              Param #
===============================================================================================
DeepfakeDetector                              [32, 2]                   --
├─ResNet: 1-1                                 --                        2,049,000
│    └─Conv2d: 2-1                            [32, 64, 112, 112]        (9,408)
│    └─BatchNorm2d: 2-2                       [32, 64, 112, 112]        (128)
│    └─ReLU: 2-3                              [32, 64, 112, 112]        --
│    └─MaxPool2d: 2-4                         [32, 64, 56, 56]          --
│    └─Sequential: 2-5                        [32, 256, 56, 56]         --
│    │    └─Bottleneck: 3-1                   [32, 256, 56, 56]         (75,008)
│    │    └─Bottleneck: 3-2                   [32, 256, 56, 56]         (70,400)
│    │    └─Bottleneck: 3-3                   [32, 256, 56, 56]         (70,400)
│    └─Sequential: 2-6                        [32, 512, 28, 28]         --
│    │    └─Bottleneck: 3-4                   [32, 512, 28, 28]         (379,392)
│    │    └─Bottleneck: 3-5                   [32, 512, 28, 28]         (280,064)
│    │    └─Bottleneck: 3-6                   [32, 512, 28, 28]         (280,064)
│    │    └─Bottleneck: 3-7                   [32, 512, 28, 28]         (280,064)
│    └─Sequential: 2-7                        [32, 1024, 14, 14]        --
│    │    └─Bottleneck: 3-8                   [32, 1024, 14, 14]        (1,512,448)
│    │    └─Bottleneck: 3-9                   [32, 1024, 14, 14]        (1,117,184)
│    │    └─Bottleneck: 3-10                  [32, 1024, 14, 14]        (1,117,184)
│    │    └─Bottleneck: 3-11                  [32, 1024, 14, 14]        (1,117,184)
│    │    └─Bottleneck: 3-12                  [32, 1024, 14, 14]        (1,117,184)
│    │    └─Bottleneck: 3-13                  [32, 1024, 14, 14]        (1,117,184)
│    └─Sequential: 2-8                        [32, 2048, 7, 7]          --
│    │    └─Bottleneck: 3-14                  [32, 2048, 7, 7]          (6,039,552)
│    │    └─Bottleneck: 3-15                  [32, 2048, 7, 7]          (4,462,592)
│    │    └─Bottleneck: 3-16                  [32, 2048, 7, 7]          (4,462,592)
├─AdaptiveAvgPool2d: 1-2                      [32, 2048, 1, 1]          --
├─LSTM: 1-3                                   [32, 1, 10]               82,400
├─Linear: 1-4                                 [32, 128]                 1,408
├─ReLU: 1-5                                   [32, 128]                 --
├─Linear: 1-6                                 [32, 128]                 16,512
├─ReLU: 1-7                                   [32, 128]                 --
├─Linear: 1-8                                 [32, 2]                   258
├─ReLU: 1-9                                   [32, 2]                   --
├─Sigmoid: 1-10                               [32, 2]                   --
===============================================================================================
Total params: 25,657,610
Trainable params: 100,578
Non-trainable params: 25,557,032
Total mult-adds (G): 130.79
===============================================================================================
Input size (MB): 251.66
Forward/backward pass size (MB): 5690.43
Params size (MB): 94.43
Estimated Total Size (MB): 6036.52
…
