…
  0%|                                                                                                                                                   | 0/310 [00:00<?, ?it/s]
ResNet50 output size per frame: torch.Size([32, 2048])
torch.Size([32, 10, 2048])
torch.Size([32, 10, 50])
torch.Size([32, 500])
===============================================================================================
Layer (type:depth-idx)                        Output Shape              Param #
===============================================================================================
DeepfakeDetector                              [32, 2]                   2,049,000
├─ResNet: 1-19                                --                        (recursive)
│    └─Conv2d: 2-1                            [32, 64, 112, 112]        (9,408)
│    └─BatchNorm2d: 2-2                       [32, 64, 112, 112]        (128)
│    └─ReLU: 2-3                              [32, 64, 112, 112]        --
│    └─MaxPool2d: 2-4                         [32, 64, 56, 56]          --
│    └─Sequential: 2-5                        [32, 256, 56, 56]         --
│    │    └─Bottleneck: 3-1                   [32, 256, 56, 56]         (75,008)
│    │    └─Bottleneck: 3-2                   [32, 256, 56, 56]         (70,400)
│    │    └─Bottleneck: 3-3                   [32, 256, 56, 56]         (70,400)
│    └─Sequential: 2-6                        [32, 512, 28, 28]         --
│    │    └─Bottleneck: 3-4                   [32, 512, 28, 28]         (379,392)
│    │    └─Bottleneck: 3-5                   [32, 512, 28, 28]         (280,064)
│    │    └─Bottleneck: 3-6                   [32, 512, 28, 28]         (280,064)
│    │    └─Bottleneck: 3-7                   [32, 512, 28, 28]         (280,064)
│    └─Sequential: 2-7                        [32, 1024, 14, 14]        --
│    │    └─Bottleneck: 3-8                   [32, 1024, 14, 14]        (1,512,448)
│    │    └─Bottleneck: 3-9                   [32, 1024, 14, 14]        (1,117,184)
│    │    └─Bottleneck: 3-10                  [32, 1024, 14, 14]        (1,117,184)
│    │    └─Bottleneck: 3-11                  [32, 1024, 14, 14]        (1,117,184)
│    │    └─Bottleneck: 3-12                  [32, 1024, 14, 14]        (1,117,184)
│    │    └─Bottleneck: 3-13                  [32, 1024, 14, 14]        (1,117,184)
│    └─Sequential: 2-8                        [32, 2048, 7, 7]          --
│    │    └─Bottleneck: 3-14                  [32, 2048, 7, 7]          (6,039,552)
│    │    └─Bottleneck: 3-15                  [32, 2048, 7, 7]          (4,462,592)
│    │    └─Bottleneck: 3-16                  [32, 2048, 7, 7]          (4,462,592)
├─AdaptiveAvgPool2d: 1-2                      [32, 2048, 1, 1]          --
├─ResNet: 1-19                                --                        (recursive)
│    └─Conv2d: 2-9                            [32, 64, 112, 112]        (recursive)
│    └─BatchNorm2d: 2-10                      [32, 64, 112, 112]        (recursive)
│    └─ReLU: 2-11                             [32, 64, 112, 112]        --
│    └─MaxPool2d: 2-12                        [32, 64, 56, 56]          --
│    └─Sequential: 2-13                       [32, 256, 56, 56]         (recursive)
│    │    └─Bottleneck: 3-17                  [32, 256, 56, 56]         (recursive)
│    │    └─Bottleneck: 3-18                  [32, 256, 56, 56]         (recursive)
│    │    └─Bottleneck: 3-19                  [32, 256, 56, 56]         (recursive)
│    └─Sequential: 2-14                       [32, 512, 28, 28]         (recursive)
…
│    │    └─Bottleneck: 3-155                 [32, 1024, 14, 14]        (recursive)
│    │    └─Bottleneck: 3-156                 [32, 1024, 14, 14]        (recursive)
│    │    └─Bottleneck: 3-157                 [32, 1024, 14, 14]        (recursive)
│    └─Sequential: 2-80                       [32, 2048, 7, 7]          (recursive)
│    │    └─Bottleneck: 3-158                 [32, 2048, 7, 7]          (recursive)
│    │    └─Bottleneck: 3-159                 [32, 2048, 7, 7]          (recursive)
│    │    └─Bottleneck: 3-160                 [32, 2048, 7, 7]          (recursive)
├─AdaptiveAvgPool2d: 1-20                     [32, 2048, 1, 1]          --
├─LSTM: 1-21                                  [32, 10, 50]              420,000
├─Linear: 1-22                                [32, 512]                 256,512
├─ReLU: 1-23                                  [32, 512]                 --
├─Linear: 1-24                                [32, 128]                 65,664
├─ReLU: 1-25                                  [32, 128]                 --
├─Linear: 1-26                                [32, 2]                   258
├─ReLU: 1-27                                  [32, 2]                   --
├─Softmax: 1-28                               [32, 2]                   --
===============================================================================================
Total params: 26,299,466
Trainable params: 742,434
Non-trainable params: 25,557,032
Total mult-adds (T): 1.31
===============================================================================================
Input size (MB): 251.66
Forward/backward pass size (MB): 56903.89
Params size (MB): 97.00
Estimated Total Size (MB): 57252.55
…
